teacher_models/teacher_model0.pt (torch, 99066 bytes, 48 tensors)

cls_token f4 [1, 1, 32]
000000 78 57 e7 be 1c e5 31 3f 8f a6 54 be fa 90 35 3f
       -0.4518392 0.6949022 -0.20766662 0.7092434
000010 33 f3 06 bf 00 7a 82 bf d5 25 41 3e 40 b0 43 3f
       -0.5271484 -1.0193481 0.18862088 0.7644081
000020 86 ee 02 3f ac fa 76 be 4b be 8b 3d 46 f2 a6 be
       0.5114521 -0.24119061 0.06823405 -0.32606715
000030 a7 fc cf 3d 29 29 04 be 7d 53 65 bf 69 8b 70 bf
       0.101556115 -0.12906326 -0.8958052 -0.93962723
000040 fd cc 76 bf 68 60 6e bf 2b a1 2a 3e f4 f1 58 bf
       -0.9640654 -0.93115854 0.16663043 -0.8474419
000050 d1 ce 51 3e b9 21 09 3f d7 de cd 3e 16 0b df 3e
       0.2048905 0.5356708 0.40209076 0.43563145
000060 d2 2b 35 3f 40 20 be 3d 0f 28 5a 3f 72 f1 34 bf
       0.7076999 0.09283495 0.85217375 -0.70680916
000070 9a 7f 30 3f b2 77 bd 3e ef 8f 04 3f 14 12 99 be
       0.68944705 0.37005383 0.51782125 -0.29896605

conv_cls_head.weight f4 [10, 192]
000000 01 cb d9 be 0d 65 00 c0 5c 25 71 be 67 60 75 3f
       -0.42537692 -2.0061677 -0.23549408 0.95850223
000010 ab 33 5d be 68 46 8d bf 7d da f2 be f0 df 20 3e
       -0.21601741 -1.1037111 -0.47432318 0.15710425
000020 6c 09 37 3e 39 3b 5d 3f 51 b5 0f bf f3 61 01 c0
       0.17874688 0.8641849 -0.5613604 -2.0216033
000030 28 ab 21 bf 55 ca 89 bf df 23 27 bf 6d c5 40 3f
       -0.6315179 -1.0764872 -0.6528911 0.7530125
000040 0a 38 3b bf 80 9d a4 bf 3a 33 81 3e f5 24 15 3e
       -0.73132384 -1.2860565 0.25234395 0.14564879
000050 13 34 60 3e 6a 66 93 3e 8d 64 db be 4f 3e cc be
       0.21894865 0.28789073 -0.42850152 -0.39891288
000060 cc 70 2b 3e e2 ee 5d bf b0 fa 3f bf bb 75 95 be
       0.16742247 -0.8669263 -0.74991894 -0.29191384
000070 a2 ee 44 bf a4 75 8d 3d 7c 45 25 bf d5 3a 4c 3f
       -0.76926625 0.06907204 -0.6455915 0.7977727
000080 fb fa 41 3f e8 c1 e6 be b5 41 34 bf 10 ba 85 bf
       0.7577359 -0.45069814 -0.7041276 -1.0447407
000090 f5 74 70 3f e9 c4 0c 3f 8b 04 9f 3d 68 54 a4 bf
       0.9392846 0.5498796 0.077645384 -1.2838259
0000a0 6e 19 37 bf 00 4c 9f 3e 6f 63 33 3e 70 1c aa 3e
       -0.7152318 0.3111267 0.175184 0.3322482
0000b0 15 ad 66 bf dc a7 da 3e 16 40 cc 3e 1a dc a8 3f
       -0.9010785 0.42706192 0.39892644 1.319217
0000c0 07 64 13 bf 7c f3 a4 3e a7 e4 66 3e de 4a 28 bf
       -0.57574505 0.32217014 0.22548161 -0.6573924
0000d0 cc 87 8e bf 03 66 a7 be 93 bd b0 bf a8 79 83 bf
       -1.1135192 -0.32695016 -1.3807853 -1.0271502
0000e0 4e a4 52 3f 82 f4 6f bf a2 1f 60 3f 1e 24 17 3f
       0.8228196 -0.93732464 0.8754827 0.59039485
0000f0 94 11 39 3f 82 cb 77 be de 5a e4 be c9 a0 63 bf
       0.7229245 -0.24198726 -0.44600576 -0.88917214
000100 d3 18 8f 3e 39 bf 2f 3f 00 e1 b0 3e c6 fe 84 be
       0.27948627 0.6865116 0.3454666 -0.25975627
000110 c5 34 a4 bf f1 9a c3 be 50 9b 3b bf 23 a8 3b be
       -1.2828604 -0.38204148 -0.73283863 -0.18325858
000120 c0 5c a7 bf 35 dd fe bd cf 69 78 3e 7e c8 e7 3e
       -1.307518 -0.12444536 0.24259113 0.4527015
000130 3a 53 08 bf c1 c5 80 3f e6 88 02 3f cf 6a 01 3f
       -0.53251994 1.006035 0.5099014 0.505536
000140 c9 46 0d bf 1c c2 1b bf d7 ac d8 3e 04 70 78 3e
       -0.55186135 -0.6084306 0.42319366 0.2426148
000150 b0 c8 71 3e 0c 5b 2e bf 12 04 dc 3e 4d 59 be 3b
       0.23611712 -0.68107677 0.42971855 0.0058089853
000160 bb 5e 0e bf b8 c8 4c bf 06 80 76 3e b3 c9 14 be
       -0.556133 -0.7999377 0.24072275 -0.14530067
000170 af f0 39 be 41 d1 21 3f 77 d7 47 bf e5 5c ae 3d
       -0.1815822 0.6320992 -0.7806315 0.08513812
000180 ac 03 93 bf 9e c2 a1 be 0e 61 54 3e 9e d5 5d 3e
       -1.1485496 -0.31593794 0.20740148 0.2166352
000190 3a f2 b4 bc f1 ae 81 be a0 4b 92 3e f6 7f 0a 3f
       -0.022088159 -0.25328782 0.28573322 0.541015
0001a0 75 0d c7 bf 63 16 c6 be b5 9d 10 3f cd 6e bf 3d
       -1.5550982 -0.38688955 0.5649064 0.093473054
0001b0 27 0e 06 bd c3 62 2c bf a0 02 90 be c4 4b 58 3e
       -0.03272834 -0.673382 -0.28127003 0.21122652
0001c0 d4 5d 10 bf 12 03 9f bf 18 13 e2 be e3 b2 64 bf
       -0.5639317 -1.2422812 -0.44155192 -0.8933546
0001d0 a1 ca 52 bd 4c ce b4 3f 68 97 0b 3e 4e 21 89 3e
       -0.051462773 1.4125457 0.13631976 0.26783222
0001e0 19 82 24 bf a9 d3 df bd 20 24 87 3e 1c 65 5c bf
       -0.64261013 -0.10929043 0.2639475 -0.8609178
0001f0 5f 99 78 bd 49 ef 98 bd e9 19 1b 3f 33 7f 80 be
       -0.06069314 -0.07467515 0.6058641 -0.25097045
000200 7e 2e 14 be c3 74 79 3e ad 20 dc 3e a2 70 95 be
       -0.1447086 0.24360947 0.4299368 -0.29187495
000210 37 6d 44 be 74 a6 98 3e 5b 13 a0 bf 88 10 9a be
       -0.19182287 0.29814494 -1.2505907 -0.30090737
000220 a9 7e 10 bf 06 44 be bd e0 2f e8 3d 3f 94 cd 3d
       -0.5644327 -0.09290318 0.113372564 0.10038041
000230 a5 9b 83 bf 69 85 9e be d2 c9 0f bc e5 fb a2 3d
       -1.0281874 -0.3096116 -0.008776145 0.07958201
000240 e6 86 b6 be 03 40 ec 3d cc 03 c5 bd 13 1c 2d 3f
       -0.35649794 0.11535647 -0.09619865 0.6762096
000250 ab 44 a6 3e f8 31 56 bf 72 9c b7 be c8 48 1d 3f
       0.32474265 -0.83669996 -0.35861546 0.6143918
000260 d4 6b f1 3d 06 db ee 3e 66 a0 b9 3e a9 b6 5c bf
       0.11788145 0.46651477 0.36255187 -0.8621622
000270 84 e7 f6 3e ae d7 14 3e 3e 09 b7 3b 6e e9 70 3d
       0.48223507 0.145354 0.0055858186 0.058816366
000280 a9 21 a3 bc 4a 3b 0e bf 87 d8 87 3e 8d b7 94 3f
       -0.019913511 -0.5555922 0.26532385 1.1618515
000290 c7 82 48 3d 88 76 84 bc c3 a9 f8 3d c9 3e 12 be
       0.048952844 -0.016169801 0.121417545 -0.14281763
0002a0 5d 74 b1 3e 48 aa ef bd 56 db 4e bf 6f d5 85 3e
       0.3465909 -0.117024004 -0.8080343 0.261394
0002b0 87 30 a2 3e a3 e5 40 bf 2b 12 04 3d 46 98 82 bf
       0.31677648 -0.753504 0.03224389 -1.020272
0002c0 3d ea 4b be 09 b3 13 be 40 de 36 3f 5f fd c0 3e
       -0.19913574 -0.14423765 0.71432877 0.37693307
0002d0 21 b1 69 be 40 1b 9e 3e 40 7c 7b bd b3 a9 47 3e
       -0.22821476 0.30880165 -0.06139779 0.19498329
0002e0 ef 9a 49 3e a7 3a 31 3f e2 d0 39 bf c3 98 06 3f
       0.19688009 0.6923012 -0.72584355 0.52576846
0002f0 4e 7b 2c 3f ad af 0f bf ba 41 b7 be c0 fb 02 3f
       0.6737565 -0.56127435 -0.35792333 0.5116539
000300 e3 f3 19 3f 1c 7c 48 bf 84 5e 5d 3f 41 69 3f 3e
       0.60137767 -0.78314376 0.86472344 0.18692495
000310 d9 09 85 be 06 1c 75 3f a1 03 63 bf 4b a4 4a bf
       -0.25984076 0.95745885 -0.8867741 -0.7915694
000320 20 07 54 bf 88 af f3 be 5d c9 63 be 22 11 55 3f
       -0.8282337 -0.47594857 -0.22244783 0.8322927
000330 62 55 35 be 23 42 d5 be 0a a1 8e bf 56 12 8f 3e
       -0.17708352 -0.4165202 -1.1142895 0.27943677
000340 d6 b2 02 3f 2b c1 9d 3e 22 6e 80 3d 97 92 63 bf
       0.5105413 0.30811438 0.06271006 -0.88895553
000350 e6 43 8b be 8d 0c bd bd c3 36 99 3c d3 2a 6f 3f
       -0.2720024 -0.092309095 0.01870287 0.9342472
000360 cc 64 0c bd f0 13 82 3f c9 d9 08 3f fb d5 b1 3f
       -0.034275815 1.0162334 0.53457314 1.3893427
000370 91 50 b0 3e dc f6 76 3e 4a 92 f8 3e a0 8a aa bf
       0.34436467 0.24117607 0.4854911 -1.3323555
000380 47 a1 28 3e 35 61 73 be 3c b4 5e 3f c1 65 d8 3e
       0.16467772 -0.2376755 0.86993766 0.42265132
000390 00 d1 de 3f 4c 6b 97 be 04 8a 81 be 46 18 8e 3d
       1.7407532 -0.2957405 -0.2530061 0.069382235
0003a0 a6 47 8a 3f da 63 3e be 90 ee 86 bf ca d2 ad bd
       1.0803115 -0.18592778 -1.0541553 -0.084874704
0003b0 3f 18 25 be 66 d8 3a bf 90 a2 0b c0 85 f5 8f bf
       -0.1612253 -0.7298645 -2.181797 -1.1246802
0003c0 15 18 95 3d 6a d6 6a be a5 19 38 be 97 39 be be
       0.07279984 -0.22933355 -0.17978533 -0.37153313
0003d0 a0 59 62 bf 56 46 7e 3f 55 76 01 3e 73 38 84 3e
       -0.88418007 0.99326074 0.12642796 0.25824317
0003e0 0d 9b 15 bd a3 0e 11 3f a0 8a b5 be 00 ff a7 bf
       -0.03652482 0.5666296 -0.35457325 -1.3124695
0003f0 ea 37 0e 3f 4f 29 17 be fb ed 04 be f0 bc 5f 3f
       0.5555407 -0.14761852 -0.12981407 0.8739767

conv_cls_head.bias f4 [10]
000000 d2 bf cd bd 0c 62 48 3e 0f a4 20 3f 7d 1f 89 be
       -0.100463524 0.19568652 0.62750334 -0.26781836
000010 8a cf ca 3c 60 e9 29 be 57 09 22 3d 75 d1 32 3e
       0.024757165 -0.16592932 0.03955969 0.17462714
000020 b3 e9 93 be 25 58 5f be
       -0.28889236 -0.21810968

conv1.weight f4 [32, 2, 2, 2]
000000 b8 b8 94 bf c8 67 85 bf 9f bd 16 3f 54 31 e8 3e
       -1.1618872 -1.0422297 0.5888309 0.45350134
000010 76 e8 5e 3e 0b e6 54 be 35 fb da bd 8a af e4 3d
       0.21768364 -0.2079088 -0.10692445 0.11166294
000020 03 38 8b bf 74 55 8b 3f ca c8 17 bf 72 0a a3 3f
       -1.0876468 1.0885453 -0.59290755 1.2737563
000030 99 ee 04 be 8d 43 24 be 9f 49 45 be 3a d7 16 be
       -0.12981643 -0.16041394 -0.19266365 -0.1473054
000040 8b 0e fc 3e f3 08 43 3f d6 72 ec be a6 2b 5c bf
       0.49229845 0.7618553 -0.46181363 -0.860041
000050 20 7a 19 bf ca 17 1e 3f be c2 03 3f cc 3b 0c bf
       -0.5995197 0.6175505 0.5146903 -0.5477874
000060 7a 2b e9 be d7 bc 94 3d 46 13 c7 3f fc d9 4b 40
       -0.45540982 0.07262581 1.5552757 3.1851797
000070 9b 60 ca bd e3 e3 ed bc 47 73 72 bd 41 37 20 bd
       -0.09881707 -0.029039329 -0.05919197 -0.039115194
000080 d0 60 74 3e 35 60 c6 be f2 7b 4c 3e 61 83 6d be
       0.23865056 -0.38745275 0.19969156 -0.23194648
000090 27 71 a2 3e 20 5a 23 bd 7b ab 3c 3f 54 52 29 40
       0.31726953 -0.03988087 0.7369916 2.64565
0000a0 3a 04 d0 3e d2 db a6 be d6 a2 c8 3e f5 a5 eb bd
       0.40628225 -0.32589585 0.39186734 -0.11506263
0000b0 9c 83 75 3f 2b 9d 2c 40 cd 12 9d bd 42 6a 80 3f
       0.95903945 2.6970928 -0.076696016 1.0032427
0000c0 82 48 b7 be c0 39 07 bc 7d 8a eb 3e bb bf 17 be
       -0.35797507 -0.008253515 0.46004096 -0.14819233
0000d0 04 e6 84 3f 76 e2 80 3f 01 a2 42 bf 88 3c 98 bf
       1.0382695 1.006911 -0.7602845 -1.1893473
0000e0 f2 68 b7 3f 77 0c 2c 3f 12 57 45 bf 2c 05 f1 be
       1.4328902 0.6720652 -0.77085984 -0.47074258
0000f0 9f e9 87 3e 2d 41 98 be 1e da 58 be 7a ec 65 3e
       0.26545426 -0.29737225 -0.21176955 0.2245349
000100 b6 bf 6a 3f ea 47 4e be 18 d3 65 3f 36 a2 cf bd
       0.9169878 -0.2014462 0.8977523 -0.10138361
000110 bd ad 55 be 2b 58 1f bf 65 dd 20 bf d5 49 cf be
       -0.20867057 -0.6224391 -0.6283782 -0.40486017
000120 d3 05 9f bf f0 c1 aa bf 35 35 df 3e d6 42 2c 3f
       -1.2423652 -1.3340435 0.4359528 0.67289484
000130 15 9e f1 3d 09 b3 e9 bd 1e b1 5b 3b 35 71 22 bd
       0.1179773 -0.11411101 0.0033522318 -0.039658744
000140 bb 58 b0 be 20 48 9c bd f4 8a a3 3e fb 1f 3c 3e
       -0.34442696 -0.07630944 0.3194195 0.18371575
000150 2a 52 9a 3f c9 a7 a3 be 52 bd 31 40 25 a1 03 bf
       1.2056324 -0.31963947 2.7771802 -0.5141776
000160 08 ec 28 3f 67 84 29 3f a3 a1 88 bf f3 cc 07 bf
       0.65985155 0.66217655 -1.0674328 -0.530471
000170 0a 3d 25 3e a7 49 57 bb 05 30 5b 3e 79 c7 7e be
       0.16136566 -0.0032850297 0.21405037 -0.2488078
000180 bf d3 15 be 69 9a 4f bf 97 30 f4 3f 56 80 de 3f
       -0.14631556 -0.81094986 1.9077328 1.7382915
000190 51 2f d2 3d 04 de 5c bd 4b 60 a6 bd ff e8 11 3e
       0.10262931 -0.053922668 -0.08123835 0.14249037
0001a0 8f 03 33 be 97 60 81 3e 15 8d 73 3e 20 d6 e4 3e
       -0.17481826 0.25269005 0.23784287 0.44694614
0001b0 cc 88 b2 be d1 5b bb be e7 f5 f3 bf 80 c3 f4 bf
       -0.34869993 -0.36593488 -1.9059418 -1.9122162
0001c0 8e 55 30 bd 3e 57 9f 3f 53 3c bf be fc 0b af 3f
       -0.04305034 1.2448499 -0.3735071 1.3675532
0001d0 e8 6d c5 be 19 fb e9 3e 75 cb fc be 68 15 1e 3f
       -0.38560414 0.45699385 -0.49373975 0.61751413
0001e0 0a 28 d7 3f 02 c3 aa be 8a 2a 0b 3e eb 23 c2 3e
       1.6809094 -0.33351904 0.13590446 0.37918028
0001f0 36 ce bb be b5 a3 12 be 97 3f fe 3e 18 1b d4 3a
       -0.36680764 -0.14320262 0.4965789 0.0016182391
000200 78 cb 7b 3f dd e4 8a 3f e4 cc 59 bf 18 bb 18 bf
       0.98357344 1.0851094 -0.85078263 -0.5966048
000210 77 23 46 be 30 04 01 3e 59 5c 6b 3e 64 64 7c be
       -0.19349466 0.12599254 0.22984447 -0.24647671
000220 0f e0 cc bf 1d 9e 92 bf 98 46 ef be 95 c7 2b bf
       -1.6005877 -1.1454502 -0.46733546 -0.67101413
000230 11 e2 e4 be 55 14 bd 3e 6e ea df be c4 20 c5 3e
       -0.44703725 0.36929575 -0.43733543 0.3850156
000240 cb ef 17 bf 13 75 55 be ba e0 cb be 6e 7e 58 be
       -0.5935027 -0.20845442 -0.3981989 -0.21141979
000250 d9 fe ab bf 06 07 73 be cf 7a 7c bf 7e b8 29 bf
       -1.3437148 -0.23733148 -0.9862489 -0.6629714
000260 23 74 f3 3c bb db a7 be 6b d1 11 40 8d 47 e6 3f
       0.029718464 -0.3278483 2.2784069 1.7990586
000270 72 98 ab be 4f fa c7 3e f6 50 9c be 73 8d cc 3e
       -0.33514744 0.39058158 -0.30530518 0.39951667
000280 54 3c 1d 3f 48 fb 35 be 07 1c 0f be 9d c7 a1 3e
       0.6142018 -0.17771637 -0.13975535 0.31597605
000290 cd 8c cf bf 57 24 cf 3e fb db 9c bf b8 84 24 3f
       -1.6214844 0.40457413 -1.2254633 0.6426501
0002a0 41 0d 9b bd c9 52 d7 3d d9 8e 6b bf d4 1f 21 c0
       -0.07570887 0.10513837 -0.92014843 -2.5175676
0002b0 09 b9 14 be 53 cb 98 3d 64 bc 69 be ce 12 1f bd
       -0.1452371 0.07460656 -0.22825772 -0.038836293
0002c0 57 b4 81 be fc 3b 0f 3e f9 6c 46 3e f7 3d 8c be
       -0.253329 0.13987726 0.19377507 -0.27391025
0002d0 7d a5 9e 3f 74 b5 9c bf 18 de 53 3f 03 fa 74 bf
       1.2394253 -1.2242875 0.82760763 -0.9569399
0002e0 fd c2 41 bf 9c c4 0d bf 06 c8 96 3f 09 3b 92 3f
       -0.75688154 -0.5537813 1.1779792 1.1424266
0002f0 8b 05 77 3e 8a e4 67 be ad f6 9a be 4a 1e b1 3e
       0.24123208 -0.22645774 -0.30266324 0.3459342
000300 60 b2 2c bf 7b 0b 13 bf 60 06 b9 3d 90 f3 8b 3e
       -0.6745968 -0.5743939 0.09034419 0.2733426
000310 1d 00 97 3e fc 64 c6 bf 8e 88 4f bd 10 dd ce 3c
       0.29492274 -1.5499568 -0.050667338 0.025251895
000320 58 0e 03 40 de 76 85 3f a8 33 08 3f 8a 33 a5 be
       2.0477505 1.04269 0.5320382 -0.32265884
000330 6c a5 b3 bd d4 7e d5 3e c1 42 fc 3d 1f 70 11 3e
       -0.08771786 0.41698325 0.1231742 0.14202927
000340 43 c9 d6 be d4 b3 77 be 2b ac f2 3e 29 66 27 3e
       -0.41950426 -0.24189693 0.4739698 0.16347565
000350 62 64 82 bf 2a 67 58 bf ea 1d 98 3f 89 19 3f 3f
       -1.0186884 -0.84532416 1.1884129 0.7464834
000360 fa e5 e2 3f 29 8f 12 40 3a a4 48 bd 52 ae 82 bd
       1.7726433 2.2899878 -0.048984744 -0.06380905
000370 63 cb 00 bf eb c9 a8 3e 1d fe d6 bd 7e 45 5b 3d
       -0.50310344 0.3296655 -0.10497687 0.05353307
000380 7a ca 9b 3f 5c ca c0 bd d0 07 f1 be 9a 09 32 bf
       1.2171166 -0.09413597 -0.47076273 -0.695459
000390 00 3d 28 bd d0 f8 1e bf 8f 52 c3 3d cb ea ea bd
       -0.0410738 -0.6209841 0.09537231 -0.114705645
0003a0 f0 2f 9c bf b2 75 cc 3f fb 9c fa 3e d3 ec 0f bf
       -1.2202129 1.5973418 0.48947892 -0.5622074
0003b0 d4 98 e3 bb cb 33 88 bd 8a 75 85 3b 6c 70 29 3c
       -0.0069457088 -0.06650504 0.0040728496 0.010341745
0003c0 bb cf 0a be 9b 70 cd 3e 42 87 15 c0 74 70 a3 bf
       -0.13555805 0.40124974 -2.3363805 -1.2768693
0003d0 87 64 64 3e 16 9f ff bd 2c da dc 3d 00 77 9d be
       0.22303973 -0.12481515 0.107838005 -0.30754852
0003e0 f2 8f b2 bd 15 f5 50 3d ef 48 18 3e f1 f0 8b be
       -0.08718862 0.05101498 0.14871572 -0.2733226
0003f0 4a 5f b4 be ac 6c 06 3d 23 ff 87 3f 9b 63 d8 bf
       -0.3522895 0.03281848 1.0624737 -1.6905397

conv1.bias f4 [32]
000000 6f ef c1 3e 48 eb 1f 3e 3e 09 53 bf 31 ee be 3d
       0.37877986 0.15617096 -0.8243598 0.09322775
000010 9a cb 4f bd 09 88 c0 3e 09 d4 43 3d 35 d0 c7 3e
       -0.05073128 0.37603787 0.047809634 0.39026037
000020 3e 82 7e bf 86 bf 62 3e f6 fc bc 3e a5 72 9a be
       -0.99417484 0.22143373 0.36911744 -0.30165592
000030 1a 3a 96 3f 6a 9b 2e 3f 85 69 14 bf 84 82 39 3c
       1.1736481 0.68205893 -0.5797351 0.011322621
000040 48 70 06 3f 22 13 3a 3b fa 93 fd be d4 c9 92 bf
       0.5251508 0.0028392752 -0.4952696 -1.1467843
000050 22 0c 23 bf 7f 7d 7c 3f d6 9f d0 bd b5 a1 2a bf
       -0.6369039 0.9862899 -0.10186736 -0.66652995
000060 46 b1 c5 be 90 cf 3c be b9 65 37 bf 2f 51 43 bf
       -0.3861181 -0.18438554 -0.7163959 -0.7629575
000070 16 63 35 bf 4b bf 29 bf c4 7b 56 3f e6 ba 48 3f
       -0.7085432 -0.66307515 0.837826 0.78410184

conv2.BSconv.pw.weight f4 [32, 32, 1, 1]
000000 7e cb 10 3f 70 95 66 bd 1f 05 10 3e 54 f1 48 bf
       0.56560504 -0.05629486 0.14064454 -0.7849324
000010 95 6f e3 3e 77 63 38 3f 0c eb 37 3e 42 90 a7 be
       0.44421068 0.7202677 0.17960757 -0.32727247
000020 7d c2 1c 3f 15 6a 3f 3f 06 8a 11 3f 46 59 bf 3e
       0.61234266 0.74771243 0.5685123 0.37372798
000030 5f 38 08 3f 1b 61 72 3f 82 bd 06 bb 2f 57 81 3d
       0.53211015 0.9467942 -0.0020559733 0.06315457
000040 9e 89 6d be eb 55 96 3f 6d 77 48 be bb fb ae 3e
       -0.23197028 1.174497 -0.19576807 0.3417643
000050 69 d1 bc 3f 3b b4 29 be 10 49 36 3f b2 b9 0a 3e
       1.4751407 -0.16572659 0.71205235 0.135474
000060 8e df 35 3f 67 29 4d bf 3a 0d e2 be 7b 69 e9 3e
       0.7104424 -0.801413 -0.44150716 0.45588288
000070 55 15 74 3e 83 81 38 3e 92 4d 5a 3e ee 4a b6 bd
       0.23836263 0.18018155 0.21318653 -0.089010105
000080 fb ea c0 bd ad 14 ec 3e 6e 01 fa be f2 a1 47 bd
       -0.09419819 0.46109524 -0.48829216 -0.048738427
000090 3d 48 ed be ab 59 d3 bf 9f b0 80 bf 3d 82 2e 3f
       -0.46344176 -1.651174 -1.00539 0.6816748
0000a0 e9 83 fc 3e 38 bc 1d bd cc 62 9d be 0c ab 2b bf
       0.4931939 -0.038509578 -0.3073944 -0.6705787
0000b0 40 46 47 bf c4 3e bd bf 50 f9 74 3d 23 05 d1 be
       -0.7784157 -1.478478 0.059808075 -0.40824232
0000c0 b6 09 20 3f 8f d7 bd be 01 b1 15 3f a4 9b 3f 3f
       0.6251482 -0.3707852 0.5847321 0.74846864
0000d0 f3 d0 6d bf d4 e0 64 be c3 e4 43 bf 34 32 54 3e
       -0.92896956 -0.2235139 -0.7652094 0.20722276
0000e0 77 d6 2c bf 91 e0 55 3d 44 10 28 be 81 7f 90 be
       -0.6751475 0.052216116 -0.16412455 -0.28222278
0000f0 41 4b 16 bf 55 14 eb be 50 3a 01 be b2 32 5a bf
       -0.5870858 -0.4591395 -0.126199 -0.85233605
000100 9e 97 8a 3d ba 34 85 bf d7 eb 7c bf 4d bd 7b 3f
       0.067672 -1.0406716 -0.98797363 0.98335725
000110 42 0d 8d be a8 78 21 3f d2 08 06 be 7c a7 46 3f
       -0.27549177 0.6307473 -0.13089302 0.7759931
000120 87 7e 06 3f e6 6a ce be 0e c1 7d 3e 24 9d 27 3f
       0.52536815 -0.40315932 0.24780676 0.6547415
000130 d8 eb 4b 3f 21 ed 1f bd 95 98 b9 be 32 9b 98 be
       0.79656744 -0.039044503 -0.36249223 -0.29805905
000140 cf 44 ba bd 92 26 f5 3e 32 87 4a bc e1 e8 01 3e
       -0.090951554 0.4788099 -0.012361335 0.12686493
000150 36 33 1f be 1b 13 b7 3f 00 41 23 bf 65 ad 3c bf
       -0.15546879 1.4302706 -0.6377106 -0.7370208
000160 ba d7 6c be fc 2a 67 3d 1f e7 4c 3f fd 84 20 bf
       -0.23129168 0.056437477 0.8004016 -0.62702924
000170 94 bc cb 3e 1e 67 18 3f a1 e3 49 3e c9 a7 07 3e
       0.3979231 0.59532344 0.1971574 0.13247599
000180 b9 d0 41 be 70 21 21 3e cf a7 58 3f 4c 1a 31 3f
       -0.18927278 0.15735412 0.84631056 0.6918075
000190 44 97 21 3f 62 45 1d bd cd b0 a4 be 96 f0 62 3e
       0.6312144 -0.038396247 -0.32166138 0.22162089
0001a0 64 cb 91 be 4d ff 4c 3e 45 87 d8 3d e2 46 6f bf
       -0.28475487 0.20019265 0.105726756 -0.93467534
0001b0 86 ec 6e bd c5 56 1a 3e 3d db c7 be b3 db 9b bd
       -0.058331035 0.15072162 -0.39034453 -0.07610264
0001c0 ad 05 a7 bd f9 ae cd bd 71 a7 03 bf 95 02 23 3e
       -0.081553794 -0.10043139 -0.5142737 0.15918954
0001d0 30 90 7d bf d3 05 af be 1c 99 60 bf 7d 7c 6e bf
       -0.9904814 -0.3418413 -0.87733626 -0.93158704
0001e0 c4 4c 10 be f4 28 0e be b7 e6 83 bd 22 19 2b bf
       -0.14091784 -0.1388281 -0.0644049 -0.66835225
0001f0 48 51 ed 3d e1 14 98 be 0c d7 73 3e 26 d1 91 be
       0.11587769 -0.2970343 0.23812503 -0.2847988
000200 10 59 13 3f ff e2 6f 3f af 60 67 be 6a dc 16 bd
       0.57557774 0.93705744 -0.22595476 -0.036831297
000210 a6 29 9b 3f 78 af fa 3d 68 6a 62 3e f6 e5 55 3e
       1.2122085 0.12240499 0.22110903 0.20888504
000220 4d 05 b9 be 78 72 b0 3e ab 2d 2e 3e 6a e1 46 be
       -0.36136857 0.34462333 0.17009608 -0.19421926
000230 34 0a c2 3f 9a e0 fd bd 74 49 c2 be 54 bd 74 3f
       1.5159364 -0.12396355 -0.37946665 0.9560139
000240 91 91 82 bd 80 38 86 3f b7 30 46 be a6 47 8a 3f
       -0.06375421 1.0485992 -0.1935452 1.0803115
000250 f3 e5 60 3f 71 e3 3b bf 67 a3 5a be 30 d2 2f 3e
       0.87850875 -0.73393923 -0.21351396 0.17170024
000260 e1 4e 17 bf f7 64 49 3e bb 52 bb be a0 b4 29 3f
       -0.59104735 0.19667421 -0.36586556 0.66291237
000270 62 2c 6f 3e d0 56 76 3e d4 af 31 3f 64 b1 50 3e
       0.23356774 0.24056554 0.6940892 0.20380169
000280 b4 1b 3a 3e 05 12 3f 3f bd 38 3e bf 5a 50 85 3e
       0.1817463 0.7463687 -0.74305326 0.26037866
000290 90 51 93 3f fb 8c 91 bf b5 85 c6 be 83 d1 92 3f
       1.1509266 -1.1371149 -0.38773885 1.1470188
0002a0 b8 db 8d 3e cd 01 c5 3e 99 71 29 bf 06 fb 59 bf
       0.27706695 0.38477936 -0.6618896 -0.85148656
0002b0 b2 60 eb be f6 68 65 bf 94 d2 9b bd 15 74 8c 3e
       -0.4597221 -0.8961328 -0.07608524 0.27432314
0002c0 17 76 5a 3f f2 f4 63 bf 21 e2 ad 3e b0 19 ac 3e
       0.8533644 -0.8904563 0.33961585 0.33613348
0002d0 b6 01 18 bf 20 55 1a bf 58 ef 51 bf 3a c7 43 3e
       -0.5937761 -0.6028614 -0.82005835 0.19118968
0002e0 e3 e1 c5 be 2c 06 d0 3e f8 42 6a be fd ee 1c 3f
       -0.386489 0.4062971 -0.22877109 0.6130217
0002f0 e4 a9 b3 3e 10 de ca bd 5b 49 45 be f0 fa 5f bf
       0.35090554 -0.09905636 -0.19266264 -0.87492275
000300 24 ba 27 bf fb 80 93 3e 83 0f df 3d 53 75 04 bf
       -0.65518403 0.28809342 0.108916305 -0.5174152
000310 82 e8 5a 3f 08 c5 ac 3e d9 09 9c 3f 4e 02 27 3c
       0.8551103 0.33744073 1.2190505 0.010193421
000320 08 d3 55 be 51 1d 7a 3d 5c 9b 7c be 11 9f 14 bc
       -0.20881283 0.061063115 -0.2466864 -0.0090711275
000330 f5 02 0c 3e 1a fc 10 bf 2d 04 91 3e c5 cb b1 be
       0.13673003 -0.56634676 0.28323498 -0.34725776
000340 81 02 f9 3d 18 11 6d 3e a6 48 99 3f ad 13 49 3c
       0.12158681 0.23151052 1.1975296 0.0122727575
000350 86 76 8f be 38 60 8b 3e 58 5e 2e bf 87 79 53 bf
       -0.28020114 0.27221847 -0.6811271 -0.8260731
000360 91 b4 75 bc 46 3c 56 be 3a 78 db be 82 d9 45 3f
       -0.014996664 -0.2092143 -0.42865163 0.77285016
000370 21 df b4 be 0d 48 3d bc 80 24 c0 3e d7 0a 3e be
       -0.35326484 -0.011552823 0.37527847 -0.18558823
000380 6e 26 d2 3d 3e 07 e2 be ec 0b 70 3e 36 74 69 be
       0.10261236 -0.4414615 0.23442048 -0.22798237
000390 bc 66 0f bf b5 4f ec be 0e 9f e3 3e 30 a8 eb 3e
       -0.56016135 -0.46154562 0.44457287 0.46026754
0003a0 03 a7 81 bf 31 26 9a be c9 0c b4 bf 1f e9 e0 be
       -1.0129093 -0.30107263 -1.4066402 -0.43927857
0003b0 a2 b2 5c be 19 b1 f0 3e cf f6 88 bd 12 2d 09 bd
       -0.21552518 0.47010115 -0.066877 -0.033490248
0003c0 7d 18 b9 3f 2b c3 0e 3f 16 8a 01 be 18 7c 25 3f
       1.4460598 0.5576655 -0.12650332 0.6464248
0003d0 95 28 31 3f 06 22 53 bf e3 43 e6 bd f4 3f d4 be
       0.6920255 -0.8247379 -0.11243417 -0.41455042
0003e0 c2 5e 5a 3f d2 62 99 3d 08 3d c7 3e b1 2f 2f 3f
       0.8530084 0.074895516 0.3891375 0.68432146
0003f0 81 72 06 3f 0e 54 00 bf 19 0d 30 3d 11 3c 18 bf
       0.5251847 -0.5012826 0.04298124 -0.59466654

conv2.BSconv.dw.weight f4 [32, 1, 3, 3]
000000 cb 3f fd be d6 bc 88 bf 6c 3b 2e bf 77 75 25 3f
       -0.49462733 -1.0682628 -0.6805942 0.6463236
000010 b3 af 49 3f 54 d8 2c 3f 2a 64 1a be e5 21 c3 3e
       0.7878372 0.6751759 -0.15077272 0.38111797
000020 00 fc ec 3c 5e d5 ad 3f eb 1b b4 3f c9 4b 82 3e
       0.028928757 1.358074 1.407102 0.25448444
000030 39 b6 10 3e 7b 87 ea 3e ab 24 e9 bc 0a 17 d8 bc
       0.14132012 0.45806488 -0.028459867 -0.026378173
000040 2c d2 c5 3b 46 9f b1 bc 3d 73 5f be 6a b8 15 bf
       0.0060370173 -0.021682393 -0.21821304 -0.5848452
000050 01 e5 bf be b6 db c0 be 83 07 19 3e b1 c1 57 bc
       -0.37479404 -0.37667626 0.14944272 -0.013168738
000060 19 d1 84 be aa e1 60 be 53 50 f8 bd d7 85 40 3e
       -0.2594078 -0.21961084 -0.12124696 0.18801056
000070 4c 66 5f 3e 66 28 39 bc 94 87 49 3f 54 c7 a9 3e
       0.21816367 -0.011301136 0.787225 0.33159888
000080 0f 7e 3b 3f fb 6f d2 be 97 cd 14 3e 01 0e 17 bf
       0.73239225 -0.4110106 0.14531551 -0.59005743
000090 61 1a 13 bf 0f 84 5a bf 65 b8 f2 be fc 5c 95 be
       -0.57462126 -0.85357755 -0.47406307 -0.29172504
0000a0 f6 c0 ab be 77 c2 9c be 55 e5 81 3f 35 66 30 3f
       -0.33545655 -0.30617115 1.0148112 0.68905956
0000b0 1d 7c 42 3f 61 f8 0f 3f c0 d3 ea bd ef da 1d 3f
       0.7597063 0.5623837 -0.11466169 0.6166219
0000c0 09 13 a9 be 46 2f cf be 64 2d 3a be 75 7c e9 be
       -0.33022335 -0.40465754 -0.18181378 -0.45602766
0000d0 4a f9 0e bf 8a 66 93 bf bf 56 1d be ee 7c d0 3d
       -0.55849135 -1.1515667 -0.15365122 0.101800784
0000e0 2c 0a bb 3d d0 a3 fc 3d f7 06 df 3e 3f 56 7d 3e
       0.091327995 0.12335932 0.4356 0.24739932
0000f0 00 dd a9 3b c9 bb 86 3e a7 39 16 3d 25 03 16 3f
       0.005183816 0.26315144 0.036676075 0.5859855
000100 9c be 30 bf bc 26 fb be 73 51 47 3f 0c 5b 3c be
       -0.69040847 -0.4905299 0.77858657 -0.18394107
000110 cd b3 10 bd fc df 9f 3e a3 e8 a9 bf da 17 b4 be
       -0.03532772 0.31225574 -1.327412 -0.35174447
000120 67 5b 36 be 75 93 90 bc 62 de eb 3d 73 4d 13 3f
       -0.17808305 -0.017648438 0.115170255 0.57540053
000130 0b f1 c2 3e 29 12 53 bf 77 1e 82 be ca 63 15 be
       0.38074526 -0.82449585 -0.25413868 -0.14588848
000140 4b 53 49 3d 0f 4d f7 3e ad 7b 47 3f 6d 5b 3a 3c
       0.0491517 0.4830098 0.7792309 0.011374337
000150 ac 03 34 bf 25 b6 01 bf 5b d5 43 bf 4a 26 d0 3f
       -0.703181 -0.50668555 -0.7649743 1.6261685
000160 82 d7 c1 3f f4 55 30 3f 71 d3 16 bf 4c be c2 be
       1.5143893 0.68881154 -0.58916384 -0.3803581
000170 b6 c5 57 be ed d1 41 bf ab c8 b8 be 81 ed 7f be
       -0.21071514 -0.75710946 -0.36090598 -0.24992944
000180 12 c9 00 bf 89 21 e3 be bf 06 52 be 88 00 25 3f
       -0.5030681 -0.44361523 -0.20510386 0.64453936
000190 31 9b 23 3f f9 2a 08 3f 5b 32 6e bf 9d fb 90 bf
       0.6390868 0.5319057 -0.93045586 -1.1326786
0001a0 9c 19 87 bf f5 00 ed 3d c9 d2 0c 3e de 0c 2c 3b
       -1.055469 0.11572448 0.13752283 0.0026252787
0001b0 87 58 eb be 52 4c 0c bf ca 41 0b bf 93 c8 25 3f
       -0.45965979 -0.54803956 -0.5439726 0.64759177
0001c0 60 39 b6 3e d9 f9 1c 3f 2a cd 76 3d 7c be 6a 3e
       0.3559065 0.6131874 0.060254253 0.22924227
0001d0 fd f7 40 bd 1c 82 a6 be bd 22 25 3f ce 38 2f 3e
       -0.0471115 -0.3252114 0.6450613 0.17111513
0001e0 f7 b6 d4 be 2e d2 c4 3d a2 0f a6 3c e1 08 de be
       -0.4154584 0.09610401 0.020271126 -0.4336615
0001f0 13 27 2b 3f 3c 54 72 3d e6 81 15 3e 0e b9 36 3f
       0.668565 0.059162363 0.14600334 0.7137612
000200 ed 17 98 be ee 2a 85 3f 3c 96 40 3f 82 d1 09 3e
       -0.29705754 1.0403726 0.7522924 0.13458827
000210 c4 e8 78 3b e6 29 3c 3c a0 fe 47 be 67 46 58 3e
       0.0037980536 0.011484599 -0.19530725 0.21120606
000220 91 7c d2 3e 55 2a c8 3e 7f 5d 9a 3e 9a da 96 3e
       0.41110662 0.39094797 0.30149457 0.29463655
000230 09 3b 59 3e c7 62 46 bc 25 68 9c 3e 8d 98 6b bd
       0.21213926 -0.012108511 0.30548206 -0.05751853
000240 34 23 35 bf d6 ee 48 3d 47 2e b2 be e6 ee 89 bf
       -0.7075684 0.049055897 -0.34800932 -1.0776031
000250 95 94 38 bf ea fe 3d bf 59 39 4b be 77 bb 5d 3e
       -0.7210172 -0.74217093 -0.19846095 0.21653543
000260 7a ea ca 3d d5 74 c5 be d1 2e 89 3f 32 9f 1b be
       0.09908004 -0.38565698 1.0717412 -0.15197447
000270 a1 76 d5 3d 76 77 88 be c1 e4 b0 3d 85 9d 9a 3e
       0.10423017 -0.2665364 0.08637381 0.30198303
000280 07 b4 40 bf 27 43 44 3e b9 95 1a 3d 87 a3 a3 3e
       -0.752747 0.19166242 0.037740443 0.319607
000290 a7 91 1b 3d 38 05 6a 3f cc 84 bd 3e e4 50 98 3f
       0.0379807 0.91414213 0.37015378 1.1899686
0002a0 85 51 cb be 99 9e cf be 0f 1e e3 be a1 db 92 bd
       -0.39710632 -0.40550688 -0.4435887 -0.07170797
0002b0 5f bd 95 bd 80 b0 0a bd d4 84 1f be ee 47 fc bd
       -0.0731151 -0.03385973 -0.15578014 -0.12318407
0002c0 ae 45 45 bd 63 67 fd 3d c0 3f e9 3d 8e 8c d3 3d
       -0.048162155 0.12373235 0.113891125 0.10329543
0002d0 f8 93 39 3e 33 f3 92 be 38 0c 15 bf 38 81 40 3f
       0.18122852 -0.2870117 -0.5822177 0.7519717
0002e0 2d 3b 6e 3e 80 83 7d be de 32 b2 3e 01 9f f9 3d
       0.23264761 -0.24757195 0.34804434 0.12188531
0002f0 bb 9b 1f bf c4 7b 1f be 09 3f 1c bf f7 fb d1 be
       -0.62347 -0.15574557 -0.61033684 -0.41012546
000300 d6 a4 4b be 43 d2 8a be b1 a3 80 be 8e 11 b0 3e
       -0.19887099 -0.27113542 -0.25124887 0.34388393
000310 fd 8c 2e 3f 3e 46 2b 3f 2e a4 14 3f 00 16 47 3f
       0.6818388 0.66904056 0.5806302 0.77767944
000320 e9 72 eb 3e 34 08 6e bf 06 18 55 bf 8a ea 07 bf
       0.45986107 -0.92981267 -0.8323978 -0.53092253
000330 5a 47 d0 3e 9d cc 25 3e 06 43 9f 3e fc e4 5c bf
       0.40679437 0.16191335 0.31105822 -0.862869
000340 69 e6 6c bf 5c 2b 26 bf 64 ab 47 3e ed f0 0d bf
       -0.9253908 -0.6490991 0.19498974 -0.5544575
000350 47 ce 09 be 05 c9 b2 be c9 91 6d bf 71 cc 0f bd
       -0.13457595 -0.3491899 -0.92800575 -0.03510708
000360 3b 8f c5 bb 59 fa 4d 3e c9 9a bf 3e 7b c8 21 3f
       -0.0060290373 0.20115031 0.3742278 0.63196534
000370 d4 62 74 3f 9d 9e 8e 3f 5b 36 e0 3e c4 3f 30 3f
       0.954633 1.1142155 0.4379147 0.688473
000380 a9 9c 63 3f dd 4c 2a be c3 f4 03 bd c0 23 35 be
       0.8891092 -0.16630884 -0.032215845 -0.17689419
000390 53 1b 28 3f 1e 10 2f 3e 1b 2a 25 3f 01 f7 a4 3f
       0.65666693 0.17095992 0.6451737 1.288788
0003a0 e0 b6 a9 3e fa 1b 52 3f 35 0c 9a be da 3b eb be
       0.33147335 0.8207394 -0.30087438 -0.459441
0003b0 70 0d 3a be 87 9b c5 be ba bc 46 bf 25 5f 0d bf
       -0.18169188 -0.3859522 -0.77631724 -0.55223304
0003c0 ce 48 ee 3d b2 b8 3a 3e a3 87 bf 3e 0d aa 47 3f
       0.1163498 0.18234518 0.3740817 0.7799385
0003d0 67 37 32 3f a5 1c 0c 3f 77 f3 88 3e 4d bc 2e 3f
       0.6961579 0.5473121 0.2674825 0.68256074
0003e0 0d 8f d7 3e 45 75 98 3e 07 5a 8d 3e 55 f6 10 3e
       0.42101327 0.2977697 0.27607748 0.14156468
0003f0 76 4a f3 3d 27 d8 ce 3e 26 0c c3 3e 0b a0 13 3e
       0.11879437 0.40399286 0.38095206 0.1441652

conv2.BSconv.dw.bias f4 [32]
000000 17 62 88 be 3e b2 e4 be 2c 16 48 3f 1c d8 13 3f
       -0.26637337 -0.44667238 0.7815883 0.5775163
000010 5a 6d 4e 3e 49 58 aa bc 7b 96 4d bf 54 13 a8 be
       0.20158902 -0.02079405 -0.8030774 -0.32827246
000020 36 6f c4 be 92 fc 72 be 25 27 e8 be d6 cd ee 3e
       -0.38366097 -0.2372916 -0.45342365 0.46641415
000030 c3 a0 a0 3e 67 e1 c1 3d 11 ac 9e 3e 79 57 ec 3e
       0.3137265 0.0946682 0.3099065 0.46160486
000040 02 d0 c3 3e 23 80 31 3f 3f a9 f0 3e 4d 4c d0 be
       0.38244635 0.69336146 0.47004125 -0.40683213
000050 28 24 a0 be 86 9d 2b be e9 38 7e bf 13 ee ab 3f
       -0.31277585 -0.16759309 -0.9930559 1.343203
000060 97 c4 69 3e 62 f2 08 3e 8a 6a a0 be 87 64 21 3f
       0.228289 0.13373712 -0.31331283 0.6304402
000070 35 56 64 3f 4f 59 5e 3c c2 48 4a bd 9b 5c 2f be
       0.8919404 0.0135710975 -0.049385794 -0.1712517

conv2.bn.weight f4 [32]
000000 af f8 93 3f b8 57 80 3f 73 9a 24 3f ca 87 5a 3f
       1.1560267 1.002677 0.6429817 0.8536345
000010 17 d3 5f 3f c5 0b 5f 3f da ad 14 3f ed 61 50 3f
       0.8743147 0.87127334 0.58077776 0.8139942
000020 7d 7c 99 3f dc 98 f0 3f a3 1f d9 3f 16 da 7c 3f
       1.1991116 1.8796649 1.696278 0.9877027
000030 fe 19 87 3f 7b b2 93 3f 0b 9c 84 3f 8e 7e 45 3f
       1.0554807 1.1538843 1.036012 0.7714623
000040 43 f1 06 3f e4 22 85 3f c2 81 49 3f d1 5b 61 3f
       0.52711886 1.0401273 0.7871362 0.88030726
000050 86 8b 64 3f bd c5 6f 3f 13 47 34 3f 2f 57 89 3f
       0.89275396 0.936611 0.7042095 1.0729731
000060 96 87 9c 3f 7c 3a 6c 3f c9 3d aa 3f df 8e 02 3f
       1.2228878 0.9227674 1.3300105 0.50999254
000070 21 e6 81 3f 31 05 6f 3f 23 a7 4c 3f 8d 06 43 3f
       1.0148355 0.93367296 0.7994253 0.7618187

conv2.bn.bias f4 [32]
000000 05 c4 80 be f5 86 c7 bd ef 92 fd 3d 63 bc a4 3c
       -0.2514955 -0.09742538 0.12381541 0.020109361
000010 d7 57 09 3f 6f 94 0b bf 39 1c 45 bd b1 2b 85 bd
       0.5364966 -0.54523367 -0.04812262 -0.06502474
000020 cc eb 1d bf f2 45 38 bf 0e 57 8a be 50 11 fd be
       -0.6168792 -0.7198173 -0.27019542 -0.4942727
000030 2e 5d 82 3e 61 6a 1b be 30 56 b5 3c b5 8b 83 3e
       0.25461715 -0.15177299 0.022135824 0.25692526
000040 f1 fc 03 3e e6 58 90 bf 21 be 58 bf 57 2c e7 be
       0.12889458 -1.127713 -0.84665114 -0.45151016
000050 b0 d0 74 bd 00 0a 63 be cf b3 b1 3d 38 63 8a be
       -0.059769332 -0.22171783 0.08676874 -0.27028823
000060 8b 9f c6 bd 2e 57 b1 3d 3b dd 02 be ef fb 46 3e
       -0.09698399 0.08659206 -0.12779705 0.19432043
000070 60 8e e0 be 88 4d c2 be 60 e5 12 bf 1d ff 9c be
       -0.43858624 -0.37949777 -0.5738125 -0.30663386

conv2.bn.running_mean f4 [32]
000000 50 83 3b 40 27 55 2e c2 32 a1 cc be d3 7e 95 c0
       2.9298897 -43.583157 -0.39966732 -4.6717315
000010 66 4e 34 c0 8f 18 0f 41 db 01 bd 3f 62 b0 79 bf
       -2.817285 8.943496 1.4766191 -0.97534764
000020 c7 72 84 3f 45 2d a6 42 d1 93 a6 41 0d 7d 24 40
       1.0347527 83.08842 20.822176 2.5701325
000030 47 08 59 bd f0 32 ba 3e 07 6d 96 40 9c 2b f9 3f
       -0.05298641 0.36366987 4.700809 1.9466434
000040 41 ac 91 c0 b8 ae f4 3f 42 56 da c0 8f fb c2 3f
       -4.552277 1.911582 -6.8230295 1.523302
000050 a3 8f 30 40 68 24 d3 3f 25 07 ba bf 64 95 46 41
       2.758767 1.6495485 -1.453343 12.411472
000060 46 9a 19 41 a3 b5 58 c0 64 51 af c0 96 f5 83 40
       9.600164 -3.3860862 -5.4786854 4.1237288
000070 d6 2c c5 3f 50 b3 c9 3f 04 a7 5e 3f 24 88 dd 3f
       1.5404308 1.5757847 0.86973596 1.7307172

conv2.bn.running_var f4 [32]
000000 e3 e7 ad 41 96 98 05 43 1f cc 16 41 ab 11 b2 40
       21.738226 133.59604 9.424834 5.5646567
000010 de aa 88 42 9b 11 28 42 74 14 9e 3f 8a 6e d3 42
       68.333725 42.017193 1.2349992 105.7159
000020 02 40 aa 3f 99 8f f1 43 34 77 ba 42 92 4e 8d 42
       1.3300784 483.12186 93.23282 70.65346
000030 25 06 10 41 7c f3 18 41 ac d0 85 42 f5 cd 20 41
       9.0015 9.559444 66.90756 10.0502825
000040 48 68 1c 41 43 76 a6 40 20 1b 69 41 db ea cf 3e
       9.775459 5.2019362 14.569122 0.40608868
000050 b3 30 34 41 15 09 1f 41 c3 c2 6c 41 13 2d 25 43
       11.261889 9.939717 14.797549 165.17607
000060 1b ac a6 43 09 37 ae 42 47 9c 0c 42 8c 96 55 42
       333.34457 87.10749 35.152615 53.39702
000070 12 fd 11 41 b4 10 52 41 73 1f 33 40 d4 4b cb 40
       9.124285 13.129078 2.7987945 6.3530064

conv3.BSconv.pw.weight f4 [32, 32, 1, 1]
000000 55 f8 a0 3e f9 b2 62 3f 68 df b7 bf bf 0e 7e bf
       0.31439462 0.8855434 -1.4365053 -0.9924125
000010 b3 6e f2 bd 0f 1a a7 bf 1a 88 87 bf 30 3c 66 3f
       -0.118375205 -1.3054827 -1.058841 0.8993559
000020 f6 d5 dc 3c 3b 75 74 3c fe 21 57 3f ef 8d ad be
       0.026957493 0.014920528 0.8403624 -0.3389735
000030 27 6e bf 3b 6c 49 55 3e 0c 1f 18 3f aa f5 1a 3e
       0.0058419886 0.2082879 0.59422374 0.15132776
000040 06 ac bd 3e 38 6d 87 3f 78 37 c2 3c 1d 3d ba be
       0.37045306 1.0580206 0.02370809 -0.3637475
000050 c1 6c 27 3e ed d3 a1 be f4 bd dc be c8 f1 30 3e
       0.1635008 -0.31607 -0.43113673 0.17279732
000060 16 0d 51 3f 02 fb 24 bd 34 cb 58 bf c4 31 b4 3f
       0.8166059 -0.040278442 -0.84685063 1.4077687
000070 5e 31 ec 3e 9a 1d da 3d c5 cd b1 3e 45 10 5e bf
       0.46131414 0.10650177 0.34727302 -0.86743575
000080 ef ba d0 be ae b5 93 bf da 80 94 3e c2 c6 0a be
       -0.4076762 -1.1539819 0.29004556 -0.13552383
000090 d1 d9 2d 3e c9 fa 4b bd e3 6b e2 be 15 8d 8a bf
       0.16977622 -0.049799714 -0.44222936 -1.0824305
0000a0 37 e8 3d 3d 2a 01 71 bf fa 35 c4 be 60 b9 d6 be
       0.046364035 -0.941424 -0.3832243 -0.41938305
0000b0 87 b0 b6 3e 37 1d 35 40 0d 9a 8c bd 00 00 5a 3f
       0.35681555 2.8299081 -0.0686532 0.8515625
0000c0 dd fb 3b bf c7 6f ca be 3c 18 15 bf 5f ec 7b bf
       -0.7343119 -0.39538404 -0.58240104 -0.9840755
0000d0 fb 03 62 be 1f 93 90 be 7b 46 54 bf 8b 8e 1d bf
       -0.22071831 -0.28237244 -0.82920045 -0.6154563
0000e0 5b 7d a7 3e 3b 01 01 3f f6 1d 64 3e e6 0e 89 3e
       0.32712826 0.503925 0.22277054 0.2676918
0000f0 12 87 52 3e 46 4d 3e 3f 1d 0d 7b be 61 19 ad 3f
       0.20559338 0.7433666 -0.24516721 1.352337
000100 db e5 56 bf 8b 13 94 be b4 0a 26 be 83 c5 0b be
       -0.8394448 -0.2892116 -0.1621502 -0.13649563
000110 7c af 64 be ba 73 31 bf c8 49 a7 ba 74 70 b3 3f
       -0.22332567 -0.6931721 -0.0012763077 1.4018693
000120 8d d6 97 3e 25 70 94 be a2 10 2a 3f 41 de c7 bf
       0.29655877 -0.2899181 0.6643163 -1.5614702
000130 b6 6c bd be 23 97 5f 3f b9 41 29 3e 65 82 c0 3e
       -0.36997002 0.8733999 0.16528977 0.37599483
000140 4d 47 46 3f ae 01 04 3e 4e ae 83 3e 2d 65 fb be
       0.77452546 0.12891266 0.2571892 -0.49100628
000150 b0 ec 14 3e 49 ea 5f 3f 02 e9 b5 be fe bd 0e 3d
       0.14543414 0.87466866 -0.35529333 0.03484916
000160 bd 52 38 bf 07 6f c8 3d 3f cd a0 be 95 6c c5 3f
       -0.7200125 0.09786802 -0.3140659 1.5423762
000170 8a dd 04 3f ae 6e 2d 3f aa 52 bf be bf 25 5e 3e
       0.5190054 0.6774701 -0.37367755 0.21694086
000180 2c 8d 78 3f 1f 82 72 3e 87 c5 ec be c3 14 37 3e
       0.9709041 0.2368245 -0.4624445 0.17879014
000190 de 9d 6b 3e 1b 40 96 bc 4d bd 8b be 7f ff d5 3d
       0.2300944 -0.018341115 -0.27292863 0.10449123
0001a0 90 51 9f 3c 95 98 b5 be 47 53 67 bd fa af 6c bd
       0.019448072 -0.35467973 -0.056475904 -0.05778501
0001b0 67 ac 3d 3e 35 4e 07 be 77 79 2d bf e4 69 2c 3f
       0.18522798 -0.13213427 -0.67763466 0.67349076
0001c0 d0 15 29 bd 71 bf 99 be c3 60 3f bf 75 47 37 bf
       -0.041280568 -0.3002887 -0.7475702 -0.7159341
0001d0 c9 d8 02 be bf 32 65 3e fa 04 41 3d e4 15 1d be
       -0.1277801 0.2238264 0.047123887 -0.15340382
0001e0 c9 e1 76 be 23 0c a9 3f 05 44 01 be 3d 83 18 bf
       -0.24109568 1.3206829 -0.12623604 -0.59575254
0001f0 5f 3b b2 3e 24 be 27 3e bb f6 2f bf da 55 33 bf
       0.34810922 0.16381127 -0.68735856 -0.70052874
000200 b9 b1 59 be fd 48 2b bf 85 bc 8b 3e c7 94 d3 3e
       -0.21259202 -0.66908246 0.27292266 0.41324446
000210 2e 1a af 3e 29 68 7b 3f d2 0f a6 be c9 9f 04 bf
       0.3419966 0.9820581 -0.32433945 -0.5180631
000220 76 2a cf be 09 7a 77 be ee b0 8c be 18 2a 28 bf
       -0.40462083 -0.24167646 -0.27478737 -0.6568923
000230 65 1e 10 be b4 19 3f 3e 04 1d 91 3e 3f 82 ae 3f
       -0.14074095 0.18662149 0.2834245 1.3633498
000240 f5 66 33 bf 65 57 10 3f f1 ae 05 bd 53 c9 39 3e
       -0.70078975 0.56383353 -0.03263754 0.18143205
000250 97 b0 a0 3e e7 12 2d bf c5 01 99 3e 11 15 9c bc
       0.31384727 -0.6760697 0.29884163 -0.019053014
000260 87 4f 6a bf 6c 5c 0f be a4 20 75 3e 3b 6d 2d be
       -0.915276 -0.140001 0.23938233 -0.169362
000270 1e a5 88 bf d6 ed 47 3f dd 99 96 be b6 06 61 3f
       -1.067539 0.78097284 -0.29414263 0.87900865
000280 ec e0 9a 3f 7f 14 f6 3b 5e 88 96 be 3c ce 45 3e
       1.2099891 0.0075097675 -0.29400915 0.19316953
000290 b8 58 9a 3c f8 ae 03 bf b3 10 81 be 94 df 0d bf
       0.018841133 -0.51438856 -0.25208053 -0.5541928
0002a0 80 e7 07 bd dd 57 01 bf 2d 6a 68 bd c0 06 c6 3e
       -0.03317976 -0.50524694 -0.056741882 0.38677025
0002b0 04 89 c1 3e 52 7c ab bd dc e3 54 be 2f ba ae be
       0.37799847 -0.083733216 -0.20790046 -0.34126422
0002c0 39 10 1b 3f 99 f9 1a 3f c9 e1 02 bf bb 89 84 bf
       0.6057163 0.60537106 -0.5112577 -1.0354532
0002d0 a8 0c 1c 3f fa ff 2e 40 bb 60 38 bf ea 5b d4 bf
       0.6095681 2.7343736 -0.720226 -1.659055
0002e0 aa 75 0c 3f 5d 77 a2 3f c8 4a bd 3e f6 73 3e 3c
       0.5486704 1.2692677 0.36971116 0.011624327
0002f0 5e 19 16 3f 2b 05 a9 bd b4 33 c3 be 8e 28 ba be
       0.5863246 -0.08252939 -0.38125384 -0.36359066
000300 3f 14 aa 3e 8c 10 e0 3f 3d 98 ff be 1b 8d 8f be
       0.33218572 1.750505 -0.49920836 -0.28037342
000310 18 be 08 3f f7 c3 2b bf 08 bb 8a 3e 71 78 81 bf
       0.5341506 -0.67095894 0.2709582 -1.0114881
000320 97 e3 0d bf 68 04 8a 3e 6b 3f cb bf 42 eb a0 be
       -0.554254 0.26956487 -1.5878729 -0.31429487
000330 80 95 d0 3e fe 91 d3 be 85 7c 23 bf 78 55 58 be
       0.4073906 -0.4132232 -0.63861877 -0.21126354
000340 d9 87 0a bf c6 13 c5 be a3 c6 47 3f 90 35 08 3f
       -0.5411354 -0.38491648 0.7803747 0.5320673
000350 c8 72 e8 be f1 01 16 3e bc 81 3e 3e 6e f0 8f 3f
       -0.4540007 0.14649178 0.18604177 1.1245248
000360 a2 e1 da bf 68 1f 71 3f d7 28 a3 3e 9e a8 a2 bf
       -1.7100108 0.9418855 0.31867096 -1.2707708
000370 f4 86 f8 bd 36 20 41 bd b1 3f 4f 3f fd 8a 56 bf
       -0.12135115 -0.04714986 0.8095656 -0.8380583
000380 bf b1 a3 bf c7 83 54 bf fc 91 1a be ff 56 1a 3e
       -1.2788619 -0.83013576 -0.15094751 0.15072249
000390 16 24 88 3e d3 6b 8f 3f 93 59 cd 3e 0a 0c a6 3d
       0.2659003 1.120478 0.40107402 0.08107765
0003a0 67 43 9c 3d cc 67 67 bf 64 8d 46 3f ff a0 de 3c
       0.076300435 -0.90392756 0.77559495 0.027176378
0003b0 3d a9 d1 bd 4f e6 92 3e e4 36 27 3f 29 38 71 bf
       -0.10237358 0.28691337 0.6531813 -0.9422632
0003c0 d6 7a 18 3e 8a ea 96 be 39 ec ed 3e 49 b8 06 bf
       0.14890608 -0.29475814 0.46469286 -0.52624947
0003d0 c4 e2 33 bf 4f 8f d3 bf 87 d2 db 3e f7 c0 34 be
       -0.7026789 -1.6528109 0.42934057 -0.17651735
0003e0 88 fe 52 3f fb 97 f2 bd ab 87 59 3e e4 53 c6 be
       0.82419634 -0.11845394 0.2124316 -0.38735878
0003f0 64 3e 1c 3f fd 0d 63 be eb 76 a1 3d 25 da 6d 3f
       0.610327 -0.22173305 0.0788401 0.9291099

conv3.BSconv.dw.weight f4 [32, 1, 3, 3]
000000 c5 67 3c 3f 5a 12 49 40 c5 78 38 40 c9 c2 8c 3d
       0.7359584 3.141745 2.8823712 0.0687309
000010 a4 96 75 3f ad 56 1e 3f 9b 40 0d bf 5d 23 78 3f
       0.95932984 0.61851007 -0.55176705 0.9692896
000020 43 8b fa bd 84 59 09 bf 3a e7 a3 bf 7c 5d 05 3f
       -0.12233593 -0.53652215 -1.280494 0.5209577
000030 9d 82 00 3f 66 f9 d8 3e ff 2f 1e 3e a5 d4 06 3e
       0.501993 0.42377776 0.15447997 0.13167055
000040 e5 8d 67 3f dd a9 2b bf c9 d4 5a 3d b7 78 9a bf
       0.9045089 -0.67056066 0.053425584 -1.2068089
000050 cf d2 a8 be 4d 8b cc 3e e1 d8 5e 3d 02 07 97 3e
       -0.32973334 0.39950028 0.05440605 0.29497534
000060 a1 cc 01 be df fb 8d bf d0 e1 34 bf a0 dd 88 3d
       -0.12675716 -1.109249 -0.7065706 0.066828966
000070 34 c9 d4 be b7 bb 8f be fe 1f c3 3e 9f f4 01 be
       -0.41559756 -0.28072903 0.38110346 -0.12690972
000080 e8 33 8b 3c cd eb e0 bc a4 03 22 bf 8e a4 c8 be
       0.016992524 -0.027456189 -0.63286805 -0.39188045
000090 d7 b4 04 3e 8b 76 02 bf 51 65 1a 3e 9f 63 6f 3d
       0.1295961 -0.5096213 0.15077712 0.058444615
0000a0 b7 87 27 bf 20 cf 42 be d4 94 c6 be 68 55 14 bf
       -0.6544146 -0.19024324 -0.38785422 -0.5794282
0000b0 be 4f ca be 0f 8d 7a 3f 66 31 85 3f 7f 63 b4 3f
       -0.39513963 0.9787149 1.04057 1.4092864
0000c0 09 c7 11 bc 27 c7 84 bf 0f c6 01 be fe 7d f7 bd
       -0.008897551 -1.0373276 -0.1267321 -0.12084578
0000d0 cb 5b 84 bf 32 29 d5 be 41 70 cc be bc 61 6b bf
       -1.0340513 -0.41632992 -0.39929393 -0.91946006
0000e0 83 3d 32 bf 69 e3 21 be 50 07 f9 be b6 32 1d be
       -0.6962511 -0.15809406 -0.48638391 -0.15351376
0000f0 12 9d 88 3f 94 bb 79 3f 28 0b be 3f 16 4d 71 3f
       1.0672934 0.97551847 1.4847155 0.9425825
000100 10 d6 bb 3f 6b a3 91 3f 3a 0f 95 be f5 19 1a be
       1.4674702 1.1377996 -0.2911318 -0.15048964
000110 84 0b 53 be 7e 64 a3 3f 1d e1 df 3f d0 5a 8a 3f
       -0.20609862 1.2765043 1.7490574 1.0808964
000120 c4 e1 03 bf fd f9 f2 be 59 26 db bd b0 96 91 bd
       -0.51516366 -0.4745635 -0.107006736 -0.071088195
000130 79 6c f4 3b 8d f9 4a be 14 03 db 3f f4 6c fc bd
       0.00745922 -0.19821759 1.7110314 -0.12325469
000140 ea 26 d0 be 8c 2f ab 3d 0f bf 0f 3e 24 b3 a5 3d
       -0.4065469 0.08358678 0.14037727 0.08090809
000150 93 c0 28 3f 59 5c 04 3f 14 46 2a 3f d8 b5 90 bf
       0.65918845 0.5170341 0.6651318 -1.1305494
000160 f3 92 61 bf 65 b0 93 bf 5a 49 ba bf 05 60 b9 3e
       -0.8811485 -1.1538206 -1.4553635 0.3620607
000170 eb 13 40 3f 21 f2 4f bf 20 45 c8 3e bc a2 5e 3f
       0.7503039 -0.81228834 0.39115238 0.8696706
000180 40 91 d0 bf 52 73 51 3f dc 82 0e 3f 6c eb c8 bd
       -1.6294327 0.8181659 0.55668426 -0.09810528
000190 74 ea 43 3e 1d 17 44 be 1a ad 87 be be 34 08 3e
       0.19132406 -0.19149442 -0.26499254 0.1330137
0001a0 6a 8b db 3e b0 da 28 3e 3a 78 d5 3e c1 0c 2d 3e
       0.42879802 0.16489673 0.41693288 0.16899396
0001b0 fd df 3d 3f 41 65 91 3f 32 e8 1a 3f f3 44 b2 3d
       0.74169904 1.1359025 0.6051055 0.08704557
0001c0 56 48 5f 3d 31 7e 0c 3e 6a 3e 17 bf 11 c9 23 3f
       0.054512344 0.13720013 -0.5907961 0.6397868
0001d0 6f 46 bf be f7 f1 39 3e 50 08 93 3f ac 1d f7 3e
       -0.37358424 0.18158709 1.1486912 0.48264825
0001e0 1f f6 77 bd e0 15 a6 3e fd 3c 0f 3c 61 ea af be
       -0.060537454 0.32438564 0.008742568 -0.34358504
0001f0 bf 80 6e 3f 8d ac 78 3d 4a 37 d6 bd f5 56 ff bd
       0.931652 0.060711432 -0.10459764 -0.124677576
000200 25 8c 5d be e9 ff ac bd db d1 ce be cd 14 a7 3c
       -0.21635492 -0.084472485 -0.40394482 0.02039566
000210 fd 0b ad be a9 ca 83 bf b0 48 7a be b9 bf 3a 3e
       -0.3379821 -1.0296222 -0.2444179 0.18237199
000220 7e ab 13 bf b9 16 39 3d 14 65 22 3e 8a 75 0f bf
       -0.5768355 0.045187686 0.1585887 -0.56038725
000230 d3 85 10 be 2d 28 e9 be a2 dc 96 be 59 c1 e1 be
       -0.1411355 -0.45538464 -0.29465204 -0.44092825
000240 da 0d 3e bf 45 b6 8d bd 88 a5 87 bf a8 e4 3b 3e
       -0.74239886 -0.06919531 -1.0597391 0.18348944
000250 4a 8d 42 be e8 e4 9c be d8 ad 48 bf 2b 4c 8c bd
       -0.1899921 -0.30643392 -0.78390265 -0.068504654
000260 1d ae 80 bf ed 61 fe be 4b e3 18 bf 6d 0e 36 bf
       -1.0053135 -0.49684086 -0.5972182 -0.7111576
000270 3a 95 1d 3e 12 7f 30 bd 2c eb 46 be a6 96 2c 3f
       0.15388957 -0.043089934 -0.19425648 0.6741737
000280 be f2 95 3f b6 a0 b6 3f 4c 7b aa 3d 74 06 50 bf
       1.1714704 1.4267795 0.08324298 -0.81259847
000290 d5 f3 ff be 83 93 20 be b3 99 eb be 40 34 a8 be
       -0.49990717 -0.15681271 -0.460157 -0.32852364
0002a0 56 63 0f be 42 3f c8 3f c0 21 46 3f b6 81 57 bf
       -0.14002737 1.5644305 0.7739525 -0.841823
0002b0 0c 65 11 bf 5d 11 07 bf 37 a9 8d 3e 84 75 3b 3f
       -0.5679481 -0.5276087 0.27668163 0.7322619
0002c0 08 fe c9 3e 85 71 e9 be 9c 20 cc bd f3 3c db 3d
       0.39451623 -0.4559442 -0.09967157 0.107049845
0002d0 86 83 09 3f 26 a4 6d 3f 1f dd 68 3f 46 ac aa be
       0.53716314 0.92828596 0.90962404 -0.3333456
0002e0 34 c4 d7 bd 02 5d 2f be d4 9f 0c 3f af 3f 26 3f
       -0.1053547 -0.17125323 0.5493138 0.64940923
0002f0 c6 6e dc 3f cd 97 89 3f b1 d8 65 3f a2 fc 85 3f
       1.7221305 1.0749451 0.8978377 1.0467722
000300 8d c5 72 bf ce 75 0c bf f7 4c 65 bf a4 a4 02 3f
       -0.9483269 -0.54867256 -0.89570564 0.5103247
000310 d8 c3 f2 3e 39 e9 36 3f 92 b3 a0 3e b0 c6 50 3e
       0.47415042 0.7144962 0.31387 0.20388293
000320 98 f9 e9 be 07 0c a6 3e 3d db 84 3f 1e e3 41 bf
       -0.45698237 0.3243105 1.0379406 -0.7573718
000330 64 f4 f2 be 4e b7 39 bf 9b 40 a1 3e 70 2e e3 3d
       -0.4745208 -0.72545326 0.31494603 0.110928416
000340 06 68 f3 3f f9 a2 00 3f d5 33 1b be 5e fd d6 be
       1.901612 0.50248677 -0.15156491 -0.4199018
000350 a0 40 ea be 01 cd e6 3e a1 d7 b6 bf ea 19 07 be
       -0.4575243 0.4507828 -1.4284555 -0.13193479
000360 96 82 17 bf fa f9 a8 be c4 87 e9 be ae 01 b7 be
       -0.59183633 -0.33003217 -0.45611393 -0.3574347
000370 7b 52 c2 3b 12 7c d2 be ff 79 bf 3f f7 26 73 3f
       0.0059302426 -0.41110283 1.4959105 0.9498133
000380 5a e5 88 3f 20 7d 05 bf 55 31 1e bf a9 f5 ea be
       1.0694993 -0.5214405 -0.61794025 -0.4589055
000390 df 5d 7a bf 15 d4 76 bf 40 b6 ad be eb 15 16 bd
       -0.97799486 -0.9641736 -0.33928108 -0.036641996
0003a0 75 01 51 3d cf 95 60 3e 0b 33 fc 3c a8 a5 a5 be
       0.05102678 0.21932147 0.030786058 -0.32352948
0003b0 e3 11 ca bd 2d 7f 88 3c 53 fb 09 3e 25 aa 3f 3e
       -0.09866693 0.016662205 0.13474779 0.18717249
0003c0 39 c8 70 3e ab 25 a2 3e d4 f0 84 3d dc 4c 0a 3f
       0.23513879 0.31669363 0.06491247 0.5402353
0003d0 c8 dc 12 3f 60 c8 2d 3f 49 69 cf be 8a 5c fe bd
       0.57368135 0.67883873 -0.40510014 -0.12419994
0003e0 91 8e a5 be 02 69 6c bf 6e 48 a1 bf 9d 6f 53 bf
       -0.32335332 -0.9234773 -1.2600229 -0.82592183
0003f0 82 c1 11 bd ba 57 15 bf ad f7 0c bf fa 28 a1 3d
       -0.035584934 -0.58336985 -0.55065423 0.07869144

conv3.BSconv.dw.bias f4 [32]
000000 0f 97 a2 3e d2 f7 5f 3d 98 bb e2 3d 22 0b 06 bf
       0.31755874 0.0546797 0.11070937 -0.5236074
000010 39 ba 13 bf 71 c6 ad bd 3c 9a 32 3f 69 af 8e 3d
       -0.5770603 -0.08485115 0.6976659 0.069670506
000020 cd 88 e1 be a6 c7 34 3e 37 bf 86 3e 6a 53 da bf
       -0.44049683 0.17654285 0.2631776 -1.7056706
000030 34 28 0e 3d b8 f8 10 bf 7a b1 4c bf d1 8a 15 bd
       0.03470631 -0.56629515 -0.7995831 -0.03650934
000040 25 59 80 bd c6 68 cf 3e a5 2f ee 3e 6a ce b1 be
       -0.06267003 0.40509623 0.46520725 -0.34727794
000050 ab 22 e5 bd fc 34 65 bf 4e 31 f3 3d 90 c4 87 3d
       -0.11188253 -0.8953397 0.118746385 0.06629288
000060 3f 10 af be 5b 90 4f bd 62 8d 0e bf cc fb 69 bf
       -0.34192082 -0.050674777 -0.55684483 -0.91399837
000070 60 aa b9 be 9b 15 63 3f 2e 19 f2 be 12 5d 46 be
       -0.36262798 0.8870484 -0.47284836 -0.19371441

conv3.bn.weight f4 [32]
000000 35 73 8e 3f 57 80 99 3f 1d 8e ad 3f 62 73 c5 3f
       1.1128908 1.1992291 1.3558995 1.5425837
000010 3a 80 ac 3f ed c8 99 3f 50 9f ac 3f 0c 59 b2 3f
       1.3476632 1.2014443 1.3486118 1.3933425
000020 0a d8 d2 3f b5 e1 ae 3f 19 a6 8b 3f 58 70 c6 3f
       1.647218 1.366263 1.0910064 1.5503035
000030 c3 eb af 3f 38 9a a7 3f ac 3a 9c 3f a6 4c b2 3f
       1.3743824 1.3093939 1.2205405 1.3929641
000040 a0 60 9e 3f 96 78 bd 3f 87 bc bc 3f fd 03 a8 3f
       1.2373238 1.4802425 1.4745034 1.3126217
000050 e2 6f b7 3f 29 69 f5 3f 29 96 ab 3f e8 94 bf 3f
       1.4331019 1.9172717 1.34052 1.4967318
000060 38 fe b5 3f 0d 5e 86 3f f2 db c5 3f b6 26 a3 3f
       1.4218206 1.0497452 1.5457747 1.2746189
000070 a4 16 97 3f df 0b a8 3f b6 89 ae 3f eb 26 bd 3f
       1.1803784 1.3128623 1.3635776 1.4777502

conv3.bn.bias f4 [32]
000000 40 8a 4f be a7 f6 24 be 91 85 83 be bd 80 41 bf
       -0.20267582 -0.16109715 -0.2568784 -0.75587064
000010 e4 aa b8 be 0d 30 bc 3d f7 a5 ab be b4 6f d1 3c
       -0.3606788 0.091888525 -0.3352506 0.02556596
000020 ec d7 a7 bf 4b e4 13 be fb 81 22 be 6d 2b 60 bf
       -1.3112769 -0.14442556 -0.15869896 -0.8756626
000030 76 ce a6 be 8d 2c dd be c5 99 a2 be af c6 d0 be
       -0.32579392 -0.43198052 -0.31757942 -0.40776584
000040 5c 30 3c be 3d bc 13 bf 48 47 63 be 50 f3 85 be
       -0.18377823 -0.57709104 -0.2219516 -0.26162195
000050 5a 1f d2 be 56 1a 75 bf 24 f4 87 be 62 e6 5b be
       -0.41039544 -0.9574331 -0.26553452 -0.21474603
000060 fa 65 23 bf 1f d0 5f bc 1a 01 5b bf eb 98 d4 3d
       -0.6382748 -0.01366046 -0.85548556 0.10380729
000070 07 8f 9c be 45 9b 9d be 1a b0 27 bf 6c fc 19 bf
       -0.3057787 -0.30782524 -0.65503085 -0.6015079
